EFT_minitree/hist_correction_model.pt (torch, 11796 bytes, 5 tensors)

model.0.weight f4 [64, 1]
00000000: d4c6 da3e 77ea 61bf 604e 343d e671 a0be
00000010: 6283 92be 00ef 823c 753b 4c3f 078f 3f3f
00000020: e9e3 323f 55cd 5cbf 63e0 2cbf 5543 18be
00000030: ade4 72bd 85c7 36be 47a3 12bf 4f24 34bf
00000040: 6140 393f 4a47 d13e ced6 6b3c 6304 7bbf
00000050: ced9 b93e fdd4 5b3f d78c 71bf 702d f0bd
00000060: c5a0 5e3e ca4a b93d e76d 5abf ab49 143f
00000070: de68 e9be 00d4 b43e 2012 b8be 0027 b0bd
00000080: da51 d63e 9778 07bf 3bc1 4a3e b320 453f
00000090: 1d83 16bf df41 7fbf 8ee1 863b 8fae 3a3f
000000a0: a1ec 0f3f 18aa e53e 9b32 6f3f 3f62 36bf
000000b0: 747b 87be 4049 ff3d 00e6 ad3c bf8c 4cbf
000000c0: 8d4e 60bd f095 87bd 8104 0abf c105 373f
000000d0: a684 b9be b7b6 5ebf b56e 103e c971 2c3f
000000e0: 71bf 38bf ad99 023f 6544 52bf 5b1c 6d3f
000000f0: cbfd 68bf d370 01bf 2de3 763f a172 673f
0.4272982 -0.8824839 0.044020057 -0.31336898 -0.28615862 0.015983105 0.79778224 0.7482762
0.69879013 -0.8625081 -0.67529887 -0.14869435 -0.059300113 -0.17849548 -0.5728039 -0.703679
0.7236386 0.40874702 0.014394475 -0.9805357 0.36298984 0.8587187 -0.9435553 -0.117274165
0.21741016 0.09047468 -0.8532395 0.5792491 -0.4558782 0.35317993 -0.35951328 -0.08601189
0.41859323 -0.5291838 0.19800274 0.7700302 -0.58793813 -0.99709886 0.0041162437 0.72922605
0.5622044 0.44856334 0.9343659 -0.7124366 -0.26461375 0.12465143 0.021227837 -0.7990226
-0.05476241 -0.06620395 -0.5391312 0.71493155 -0.36234015 -0.8699755 0.14104731 0.6736112
-0.72167116 0.5101574 -0.8213561 0.9262139 -0.9101226 -0.5056278 0.9644039 0.90409285

model.0.bias f4 [64]
00000000: d826 5fbf e9a0 353f 5441 8abe 7fcd 283f
00000010: fe8d a2be 78d7 edbe d92a e1bc 1657 e33e
00000020: f529 4b3f 5bb8 7b3e 6a50 933e 1fb1 533f
00000030: d31b 663f db1c 26be a3a4 58bf 1a08 c0bd
00000040: 76be c73d ba1f 993d 3b20 1f3f f719 2abf
00000050: 7bf0 1dbf 4b6f 513f 3a97 99bd 8d20 1f3d
00000060: f5b6 723f c3fb 0b3e 9368 3b3f b391 5d3c
00000070: 2576 52be d638 79bf d022 5cbf 5020 febe
00000080: 4721 613f d68d e3be 7db4 5f3e 26ae ec3e
00000090: b7d5 713f 3b36 1ebf ab9c 353e 1ad8 fb3e
000000a0: f30b 4e3e ee79 6ebf 07b6 4bbf d55c 3fbf
000000b0: b24a 65bf 8c4a 68bf 1aed 4ebf b54d 603e
000000c0: b3be 403e 360f 79bf 7634 853e f2c5 e4be
000000d0: a256 ffbe 61e3 69bf 950f 483f 2f46 31bf
000000e0: 9a0d f73d 6aad 833d aaa9 9ebe 10e7 c13d
000000f0: dfb0 32bf f359 16bd 16f9 babd cb5c 703f
-0.87168646 0.70948654 -0.27002966 0.6593856 -0.31748956 -0.46453452 -0.027486252 0.4440238
0.79360896 0.24582045 0.2877229 0.8269214 0.89886206 -0.16221945 -0.84626216 -0.09376545
0.097531244 0.074767545 0.62158555 -0.6644587 -0.6169507 0.81810445 -0.07499547 0.038849402
0.9481042 0.13670258 0.7320644 0.013523507 -0.20552881 -0.9735235 -0.8599062 -0.49634027
0.879414 -0.4444415 0.21846195 0.46226615 0.9446673 -0.618015 0.17735545 0.4918831
0.20121746 -0.931548 -0.79574627 -0.74751025 -0.895671 -0.9073875 -0.8083054 0.21904643
0.18822746 -0.97288835 0.26016587 -0.4468227 -0.49870783 -0.9136258 0.78148776 -0.69247717
0.12063141 0.064295605 -0.30988818 0.094679 -0.69801134 -0.036706876 -0.091295406 0.9389159

model.2.weight f4 [32, 64]
00000000: 6663 d73d 8bec 323d 1099 5c3d 1785 933c
00000010: bca4 973c ecb7 49bd 1f84 8ebc c633 b13d
00000020: 6234 e03d be19 f93d 1cc3 e73d 190f bcbc
00000030: 52de d83d b97f e4bd d64a 22bc 4fd8 9d3c
00000040: 645e a2bd 723d 9d3d 0428 87bd bc96 92bd
00000050: e1c8 87bd 4799 98bc b916 fcbc 2e4c b23c
00000060: 5fc8 613d a7f8 f73a 7802 823d 783c 923d
00000070: a60d 86bb a07b 0fbc f0ca 9f3c e472 51bd
00000080: 8730 1ebd 095e 3abd f4a8 37bb 9194 1d3d
00000090: dc38 9bbd 3a4e 9c3d ca1c 8ebc 9b8a 79bd
000000a0: eb5b 6dbd 1ac9 9b3d 87fb 5ebd 72ca aabd
000000b0: dcb3 b9bd e034 4cbd 3004 de3c f6e0 c43d
000000c0: 9e1b b7bd 003e 01bc 028c d53d 609c d3bd
000000d0: d43c 853d 3457 64bc e69d ad3d af8f 19bd
000000e0: 90c9 cbbd a01c e93d 1f8e 0d3d 5f83 d5bc
000000f0: 9bf8 1b3d b2f2 84bd cfa9 63bd be5a 95bd
00000100: 40a5 ef3c 0041 a2bd 421b ef3d 94de e73d
00000110: ecc3 45bb 58a4 bdbc 14ff ecbd 077e d23c
00000120: 0929 7ebb 50e0 a93d 9369 843a a48a a4bd
00000130: 5b1e e4bb b44e 023c 16cf 9ebd 13c5 41bd
00000140: d637 bf3d 60e2 9a3d 4859 823d 1967 273d
00000150: 092b b2bd dc0f f33d aee8 9b3d 23f1 4e3c
00000160: be1d a13d 8e2f 8b3c c4ed c23b baf2 ddbd
00000170: 1251 0c3c 5823 b73c 1826 85bd 4854 0e3d
00000180: 9943 25bd 770f 48bd 9484 873d 9fe7 b93c
00000190: 870f 75bd 01dc 9f3c 3350 3c3c 3d56 40bd
000001a0: 3a8d 99bd 56f0 d5bd f711 0b3d 63ef 1d3c
000001b0: 903b c73d 9a68 bc3d 768e bbbd a60e 90bd
000001c0: 7e98 f73d 00d7 68bb 1143 3d3d 69df cabc
000001d0: 75a9 903c 12db 9ebd d54e 193d b200 9f3d
000001e0: a808 cebd 6b74 353d 3dd7 6c3d 17ce 0e3d
000001f0: 7a2e ddbd 52aa 983d d751 593d aad7 933d
00000200: 28fb bc3c 65ea cbbb 90f0 acbc fbcd 0d3d
00000210: a245 e73d 403a 49bd 509b a13d 6116 a6bd
00000220: da9c a23b fba2 773d 3490 c1bd 26be 9ebd
00000230: 4e30 b1bd 480d 84bd 8629 833d 369e 983c
00000240: 54e6 bcbd bcad 70bd 4fa4 3b3d fa7d 00bd
00000250: 8072 5d3d 0853 82bd ad18 003c d551 9ebd
00000260: 1fac 193d b638 47bc 5f6c 373d c09e 54bb
00000270: ba92 0a3c 7443 fd3d 8075 543d a20a 963d
00000280: 5cf4 8e3d d3b2 953c f5fb c8bd 1500 b9bd
00000290: e657 d63d 9559 cebd cd37 02bd baac 7abd
000002a0: 2432 3f3d e813 dabd d879 28bd e42a 333d
000002b0: e006 d53c d429 ac3d 98d6 df3d fa93 003e
000002c0: 9995 5abd 686d abbc d7e8 f43c d0e9 033c
000002d0: 605b b6bb 84f8 21bd 491b 33bd 18d9 d9bc
000002e0: ee80 99bd 4828 cd3d 0741 95bb 6e34 fc3d
000002f0: a378 ecbd 24a9 debd 4e17 93bd b26d ff3d
00000300: 94fa 563d 9bd2 99bc 0010 ac38 6d9b 6dbd
00000310: 42f7 febd 7075 d03d d483 963d a637 bf3d
00000320: 22b3 c6bd 462d c23d 9812 b2bd e952 92bc
00000330: 8ee7 ab3d 0052 72bb 8434 e2bd 1c12 fabd
00000340: 207c ea3d 522e 6fbc 1cab d3bd 0075 71ba
00000350: 3dcb 10bd 70e7 fdbd e435 5f3d d846 a6bc
00000360: 2dcf 27bd 2de8 713c 06b2 38bd 11b2 89bc
00000370: 80aa a6bc d0a6 3cbc 103e 563c 4cea dc3d
00000380: b9e8 3cbd e0b1 a0bc b435 883d 5292 ef3d
00000390: 32f2 edbc 48a3 cbbc e1a5 8bbc 7078 843d
000003a0: 22bd ed3d 3207 a6bd a947 d1bc 7446 923d
000003b0: 8632 ca3d f8c1 913d b03f 6ebd 8033 bfbb
000003c0: fa8c d3bc 38e8 c83c b018 ccbd e60c 883d
000003d0: 2009 babc 80d8 07bc 1f45 483d 353e 66bd
000003e0: c8ea 0c3d 59c8 c7bc 90b2 c73c 0e7a 3a3c
000003f0: 2025 f43c 5814 fc3c 0a34 e13d 7670 273b
0.105170056 0.043682616 0.05385691 0.018007798 0.018511169 -0.049247667 -0.017396985 0.08652453
0.10947491 0.12163113 0.11316511 -0.022956418 0.10589279 -0.11157174 -0.009905538 0.019268183
-0.0792816 0.076777354 -0.06599429 -0.071576566 -0.066301115 -0.018627776 -0.030772554 0.02176484
0.05512273 0.0018918709 0.06348127 0.0714044 -0.0040909825 -0.008757502 0.019505948 -0.05113496
-0.038620498 -0.045499835 -0.0028024288 0.038471762 -0.075792044 0.07632108 -0.017347712 -0.0609232
-0.057948988 0.076067165 -0.054439094 -0.08339395 -0.090675086 -0.049855113 0.027101606 0.096132204
-0.089408144 -0.007888317 0.10427095 -0.103325605 0.06505743 -0.0139368065 0.08477382 -0.037490543
-0.09950554 0.11382413 0.034559365 -0.02606362 0.038078886 -0.06491603 -0.055581864 -0.07292698
0.029253602 -0.07922554 0.11675121 0.1132175 -0.0030176593 -0.023149654 -0.1157209 0.02569486
-0.0038781783 0.08294737 0.0010102264 -0.08034256 -0.0069616265 0.007953335 -0.07754342 -0.047307085
0.09336822 0.07562709 0.06364685 0.040869806 -0.086996146 0.11868259 0.076127395 0.012630734
0.07867001 0.01699045 0.005948754 -0.10837312 0.008564251 0.02235572 -0.065014064 0.034748346
-0.04034767 -0.048842873 0.06617084 0.022693453 -0.05982926 0.019514086 0.01149373 -0.046957243
-0.0749764 -0.10446231 0.03395268 0.009639594 0.097281575 0.09199639 -0.09158032 -0.07034044
0.120896325 -0.003552854 0.046206538 -0.024764733 0.017658928 -0.07756628 0.037428696 0.077638045
-0.10060245 0.044300478 0.057822455 0.03486451 -0.1079988 0.07454361 0.053056564 0.07218869
0.02306898 -0.0062230104 -0.021110803 0.034620266 0.11292578 -0.049127817 0.07890952 -0.08109737
0.004962546 0.060458165 -0.09451333 -0.07751112 -0.086517915 -0.06447846 0.06404404 0.018630128
-0.09223619 -0.058759436 0.045810994 -0.03137014 0.054064274 -0.06363493 0.007818383 -0.07730452
0.037517663 -0.012159517 0.044781085 -0.0032443255 0.008457834 0.12366381 0.05186987 0.07326247
0.069802016 0.018273747 -0.09813682 -0.09033219 0.10465984 -0.1007568 -0.031791497 -0.06119988
0.046678677 -0.10648328 -0.041131824 0.043742076 0.026004255 0.084064156 0.109296024 0.12556449
-0.053365324 -0.020926192 0.029896183 0.008051351 -0.005565092 -0.039543644 -0.043727193 -0.026592776
-0.074952945 0.10017449 -0.004554871 0.12314688 -0.11546447 -0.10872105 -0.071821794 0.124720946
0.052485064 -0.018777182 8.204579e-05 -0.058009554 -0.124495044 0.101786494 0.07349363 0.09336786
-0.097021356 0.094812915 -0.08694953 -0.0178618 0.08393775 -0.0036975145 -0.11045173 -0.12210485
0.11449456 -0.014598446 -0.10335371 -0.0009210855 -0.035350073 -0.12397659 0.054494753 -0.020297453
-0.040969063 0.014764828 -0.04509165 -0.016808541 -0.020344973 -0.011514381 0.01307632 0.10786876
-0.04612038 -0.019616067 0.06650868 0.1169783 -0.029046152 -0.024858132 -0.01704687 0.06468284
0.1160834 -0.08106841 -0.025546866 0.07142344 0.09872918 0.07117075 -0.058166206 -0.0058349967
-0.025824059 0.024524793 -0.09965646 0.06643085 -0.02270943 -0.008291364 0.048894044 -0.05621167
0.034403592 -0.024387525 0.024377137 0.011381639 0.029802859 0.03077142 0.10996254 0.002554921

model.2.bias f4 [32]
00000000: b7c8 fb3c 6dc4 6c3d 1639 b9bd a451 dbbd
00000010: 999b c5bc 2aa7 e0bd 387a 46bd 8406 b73d
00000020: 2cd8 be3d db18 673d 611e e93d 6a9f 9e3d
00000030: e57d 023d eea6 b93d 7a21 a1bd 137f 7fbd
00000040: 18de 33bd 68ca f0bd 52b0 9bbd ac8a c3bd
00000050: 6909 62bd 43a9 54bc a020 c8bd cdef 5fbd
00000060: 59c9 9b3d 0461 ca3d 468b a3bd d8dd 1abd
00000070: baf9 8c3d ab56 6a3d 58c8 d5bd 8859 ac3d
0.030735357 0.057804514 -0.090440914 -0.10708931 -0.024122046 -0.10969384 -0.0484564 0.0893679
0.09318575 0.05642019 0.113827474 0.077452496 0.031858344 0.090650424 -0.07867713 -0.062377047
-0.043912977 -0.11757356 -0.0760199 -0.09547934 -0.055184755 -0.012979808 -0.09771848 -0.05467205
0.076067634 0.098817855 -0.07985549 -0.037809223 0.06883569 0.05721156 -0.10438603 0.08415514

model.4.weight f4 [1, 32]
00000000: efe8 273d 93c6 a7bd 46c9 3f3d 3527 b0bd
00000010: af22 993d 6a59 f03d bfe3 edbc d266 413d
00000020: 4ba6 adbc 908e 933d 9852 e1b9 03e6 17bd
00000030: 4894 70bc 48e1 25be d2c2 9e3d 4b98 213e
00000040: e16c 98bd 9ae0 e5bc 0edf 2b3e 5f58 8abd
00000050: d4c2 e83d 145c d83c 91f8 06be 29ce 873d
00000060: e024 d63c 539f bfbd f8f0 cebd 0635 c33d
00000070: ff3b 21be 627f 913d db8b dc3d 8112 aabd
0.040993627 -0.08192172 0.04682281 -0.08601228 0.074773185 0.117358044 -0.029039262 0.047217198
-0.021197459 0.07204926 -0.0004297688 -0.03708459 -0.0146837905 -0.16199219 0.07752003 0.15780751
-0.07442642 -0.0280612 0.16784307 -0.06755137 0.113652855 0.026411094 -0.13180758 0.06631119
0.02614063 -0.093565606 -0.10104555 0.09531598 -0.15745543 0.071043745 0.10768863 -0.083043106
