EFT_minitree/ml_chi2_correction_model.pt (torch, 13682 bytes, 5 tensors)

model.0.weight f4 [64, 8]
00000000: 27ff 463e 8563 4f3d 087c 78be a75c a03e
00000010: dddb 29be fe16 f23d a0a8 823e dc8a 503e
00000020: c1ce b13e 8d35 8d3e f511 58be 1b6a 903c
00000030: ebca 633c 4d2c 98be 2b62 433e 1be6 6ebd
00000040: 36de 00be dd0c aabe d863 68be d27e a5be
00000050: f5e5 84bd bdb5 523e c129 26be 5cd5 3d3e
00000060: 7d21 0fbe f49a 7f3e 040c 903e 2f12 d7bd
00000070: 0eb3 63ba 458b 6d3d ef54 2cbe 488a 833e
00000080: af4e a13e 32c2 92bd 8ba2 79bd 5986 7d3e
00000090: 485f 87be f405 163e 6a19 4ebe 7838 863e
000000a0: 2ca2 61be 059f 18be 8317 a1be d5c7 a53e
000000b0: eada 5d3e 8ecf 66be 04b8 113e fa37 a0be
000000c0: 81cb 0d3e f1a4 933e a8e9 bdbd 2c7d ac3e
000000d0: ac02 1a3e a2e5 87bd 3447 213e 82ae cd3d
000000e0: 4f16 e5bd 3c58 d23d 8592 b63c 559d 67be
000000f0: fc32 27bd 5a69 8c3d c41e 033e 72aa 9a3d
00000100: 968a 4b3e 04bf 16bd c8a0 34be 8caf 553c
00000110: 16eb a13e d23e 843e c13b 693e 6a2e 8ebe
00000120: 5a42 383e 48d2 6fbd dc86 673e 70fe 0f3e
00000130: b89f 8bbd cf26 623d b62f f3bd 6bfe 003d
00000140: 788c 9c3d 6283 47be 91d6 eb3d 0029 61bd
00000150: c5c6 1f3e aee8 51be 8eb8 763e 81c6 a1be
00000160: 103b dbba b3af 92be 1140 80be faac 94be
00000170: 20e1 0bbd 782f 6fbd fd8d d8bd f293 513d
00000180: 0da5 1abe 03df aabe 9e7f e23d d483 4f3e
00000190: 9958 9a3c 8372 de3d 457a 623e 0114 81be
000001a0: 976d 593e 1d30 eabd f61d 273e 9fc9 233d
000001b0: f477 a2bd ff98 903e 3a17 87be 13a0 93bd
000001c0: 397e b33e 52dd aabe 0fa2 a3be 4fb9 7e3e
000001d0: fa5b afbd 5e7f f8bd 09c3 1f3e 784d 9a3e
000001e0: e099 6d3e 3b4a f7bd ce73 8dbe 863e dd3d
000001f0: f808 333e d6f9 38bd 2097 563e d93f 85be
00000200: edee 933e 3752 3d3e defc ffbd 5577 853d
00000210: c1a5 04be fabe ad3e abf6 98bd 87d0 99be
00000220: 7ce4 8b3d 1a87 46be aba3 623e e3c0 02be
00000230: 7535 343d 51fd 663e 0423 7abe 17dc 2cbe
00000240: 6b45 5bbe f924 2cbe cf2a 963e 3db9 acbe
00000250: 2b5f 013e e4ba b23d 4923 403e 4283 13bd
00000260: ba49 933e e684 0e3e 64d0 b63c 104e 563e
00000270: 67cc 9cbe 3162 803e d14a 983d 908e 00be
00000280: 8a33 ab3c ca54 acbd e729 013d 0fff 503e
00000290: ce66 2b3e bff5 433e 27f4 a73e 483c 813e
000002a0: d8ca 2abd fd02 1f3e a14f 173e 8a79 71be
000002b0: c5c8 fdbd 1ee0 2dbe 8e06 853e f57d 343e
000002c0: cf7b e83d b9ce 6d3e af61 8cbd 5b91 28bd
000002d0: 2717 383e 1ef0 b03e 252a e6bc 3925 65be
000002e0: 76bc 60be 4b98 a03e c2b2 02be cb7c 223c
000002f0: 292b 0e3e f1b7 713e d73b 523c f1bd 473d
00000300: c981 20be dd46 d73d c947 d4bd 97a7 a73d
00000310: dcea 4ebe 9c92 cb3d edb3 8abe 80a4 8a3e
00000320: 873e b33e f1d3 40be 1392 043d 8fae febd
00000330: 9486 adbe cdf2 703e ef94 243e 17c5 dabd
00000340: 6e43 4a3e 70cb 153e 52cd 0a3e 58b4 d9bd
00000350: e20b 32be 15ff 71be 3dfe 5bbe 55f6 913e
00000360: 3571 823d 6b2a 91bd 4bf0 aebe 1546 97be
00000370: 0b85 3e3c a54e 933d 74d3 21be c86c 143e
00000380: 0f69 803e d9c8 b8bd b6ef 9abe f7dd a13e
00000390: 5282 fe3d 7ec3 f0bc 36fc e03d 2b1a afbe
000003a0: d625 b83c eed9 923e 1486 17be 2a78 81be
000003b0: de37 0e3e 69a3 d2bd f1d2 673e 9823 7dbe
000003c0: 97e7 ae3c abd4 1dbe 39bc 9ebe 048c 9ebc
000003d0: 647e 5cbc ebb3 41be 6dd0 013d 87a6 173e
000003e0: e636 81bd 82c6 46be f5c0 713e f151 473e
000003f0: 0a76 6cbd baf5 573e a7ea 94be 3a8b 8a3e
0.1943327 0.05063202 -0.24266064 0.31320688 -0.16587777 0.11820792 0.25519276 0.2036547
0.34728053 0.27579919 -0.211006 0.01762872 0.01390336 -0.297213 0.19080417 -0.058324914
-0.12584767 -0.3321294 -0.22694337 -0.3232332 -0.06489173 0.2057714 -0.16226865 0.18538421
-0.13977619 0.24961454 0.28134167 -0.10501515 -0.0008686044 0.057994146 -0.16829275 0.25691438
0.31505343 -0.07165946 -0.06094603 0.24758281 -0.2643988 0.14650708 -0.20126882 0.26214957
-0.2203452 -0.14904411 -0.3146325 0.32379022 0.2166554 -0.22540113 0.14230353 -0.31292707
0.13847162 0.28836778 -0.09273082 0.3368925 0.15040082 -0.06635596 0.15749818 0.1004305
-0.11185896 0.102707356 0.022286663 -0.22618611 -0.040820107 0.06856032 0.12804705 0.07552041
0.19877085 -0.03680326 -0.17639458 0.013042342 0.3162467 0.25829178 0.227767 -0.27769786
0.17994061 -0.05855015 0.22610039 0.14061904 -0.06817573 0.055212792 -0.118743345 0.031492632
0.0764398 -0.19483712 0.11515535 -0.05497074 0.15603168 -0.20498917 0.2409384 -0.3159676
-0.0016725976 -0.28649673 -0.2504888 -0.2903822 -0.034150243 -0.05839488 -0.10573957 0.051166482
-0.15102024 -0.3337327 0.11059497 0.20265132 0.018841075 0.10861685 0.22116955 -0.25210574
0.21233211 -0.11434958 0.16320023 0.039987203 -0.079330355 0.28241727 -0.26384908 -0.07208266
0.35057238 -0.3337198 -0.31959578 0.24875377 -0.08562465 -0.12133668 0.15601744 0.3013723
0.2320323 -0.12074705 -0.27627414 0.10802941 0.1748389 -0.045160137 0.20956087 -0.26025274
0.28893223 0.18488394 -0.124994025 0.065169014 -0.12953855 0.33934766 -0.07468923 -0.30041906
0.06830689 -0.19387475 0.22132747 -0.12768893 0.043996293 0.2255757 -0.2442742 -0.16880833
-0.214132 -0.16810979 0.29329535 -0.33735076 0.1263396 0.08727053 0.1876346 -0.03601385
0.28767186 0.13917884 0.022316165 0.20928216 -0.30624697 0.25074914 0.07436145 -0.12554383
0.0208986 -0.0841461 0.0315341 0.20409797 0.16738436 0.19136713 0.3280346 0.25241303
-0.041697353 0.15528484 0.1477647 -0.2358152 -0.123918094 -0.16980025 0.25981563 0.17626174
0.113517396 0.2322339 -0.06854569 -0.041154247 0.17977582 0.34558195 -0.028096268 -0.2237748
-0.21946892 0.3136619 -0.12763503 0.009917448 0.13883652 0.23605324 0.01283165 0.048765127
-0.15674509 0.10511563 -0.103652544 0.08186262 -0.20206779 0.09940073 -0.27090397 0.2707863
0.35008642 -0.18830849 0.03236587 -0.12435638 -0.33891737 0.23530121 0.16072439 -0.10682123
0.19752285 0.14628386 0.13554886 -0.10630101 -0.17387345 -0.23632462 -0.21483703 0.2850825
0.06369249 -0.07088169 -0.34167704 -0.29545656 0.0116284 0.07192735 -0.15803319 0.14494622
0.25080153 -0.09022684 -0.3026101 0.31614658 0.124272004 -0.029390093 0.109856054 -0.34199652
0.02247898 0.28681892 -0.1479724 -0.2528699 0.13888499 -0.10285074 0.22639062 -0.24720609
0.021350665 -0.15413158 -0.31002977 -0.019353874 -0.013457868 -0.1891629 0.03169291 0.14809619
-0.06309299 -0.19411662 0.23608764 0.19464852 -0.05772976 0.21089831 -0.29085276 0.27059346

model.0.bias f4 [64]
00000000: 9383 143e cf69 e6bd 8cbd 57be 0120 853e
00000010: 854f 583e e651 923e ca95 7ebe 87db afbe
00000020: 2de7 a43e 22b8 683d 2b50 5f3d b125 903c
00000030: d1d5 4dbd b1bf f03d e2e0 223e 8e90 98bd
00000040: 6758 02be 8937 8f3e 439c 98be 8754 8ebe
00000050: bd56 10be b512 65bd f1fd b03e ad53 75be
00000060: 4141 bd3d 79be 36be ad59 a73d 0673 03be
00000070: 81f1 5abe a7d2 7a3e a7e3 96bd d32c 5b3e
00000080: f0cb 5e3c 8ae7 5abd 80ed 903e 9938 27bc
00000090: e403 96be 0054 ae3e ad4d 6f3e 3879 b2bd
000000a0: a33f 66be 34c0 87be ed89 773e 5fdb 3d3e
000000b0: 4a4e 63bc dc6a 573d 5205 663e d065 92be
000000c0: 4ac4 8d3e f909 38be 89d7 113e 5dbf 3b3e
000000d0: 07f7 ebbd f01f 12bd 0be0 8fbd 2a0e b3be
000000e0: 1ef5 753d 1c90 9d3d ac0d 063e 65d1 97bd
000000f0: e22d 46be e444 2a3e 67f4 97be 0c3d 9d3d
0.14503317 -0.1125065 -0.210684 0.2600098 0.21124084 0.2857811 -0.24861827 -0.34347174
0.32207623 0.056816228 0.054519814 0.017596098 -0.05025274 0.11755312 0.15906098 -0.074494466
-0.12729035 0.27972057 -0.29806718 -0.27798864 -0.14095588 -0.055926044 0.34568742 -0.23957701
0.09240962 -0.17846097 0.08171401 -0.12836847 -0.21381189 0.2449442 -0.0736764 0.21403818
0.013598427 -0.05344347 0.28306198 -0.010206365 -0.29299843 0.34048462 0.23369475 -0.08714527
-0.22485213 -0.26513827 0.24173708 0.18540715 -0.013873646 0.052592143 0.22462967 -0.28593302
0.2768882 -0.17972554 0.14242376 0.18334718 -0.11521726 -0.03567499 -0.07025155 -0.34971744
0.060048215 0.07693502 0.13091153 -0.07412986 -0.1935344 0.16627842 -0.29678652 0.076776594

model.2.weight f4 [32, 64]
00000000: fc24 7f3d e271 fa3d a610 d93d f2fa 8d3d
00000010: a003 b23b 1017 cabc 7889 ff3c 281b fbbc
00000020: c03e dd3c 882b 983c ba55 a9bd 5eda 91bd
00000030: 5eac 8b3d b04d 253c 38d3 8dbd c03f ba3c
00000040: 3094 d5bc 4059 c0bb 6a8b e8bd 10c5 99bd
00000050: d88e f9bc 00d8 773a 420a e83d 0c74 3cbd
00000060: 521f 9fbd bc62 02bd 88d7 763d d690 edbd
00000070: f85c c53d 3a18 8bbd e028 f73d d4d0 163d
00000080: e0d9 863b a080 933b 784a 893d 6056 eebb
00000090: 8487 a43d 2a87 d4bd f0f3 fc3d b274 943d
000000a0: 2c85 9abd 1484 0abd 9cf3 ecbd 28a3 493d
000000b0: 168d dfbd 68bd dabc 129f f7bd 7aea a73d
000000c0: f0a7 d5bd 223d 953d d03b 9d3c fa28 b8bd
000000d0: 2071 f4bb 1655 8d3d 08e7 8e3d c216 bf3d
000000e0: 6047 063d ce06 f23d a041 2fbd f8e4 acbc
000000f0: 307b 3a3d 3424 2ebd 0ec1 963d 3877 503d
00000100: 826d bf3d c8d7 8fbc 8c0b 20bd 8423 3b3d
00000110: a846 913d 70b9 563d 4295 903d 849c 083d
00000120: 900b 5e3d ce7e d13d 1a19 e83d 1a81 ab3d
00000130: 74e5 f1bd a88d 50bd f072 dcbc da6f fc3d
00000140: 2600 863d 8809 f13c d87d 663d ee23 c4bd
00000150: 6aa8 e13d b236 e73d a415 89bd 625b edbd
00000160: c228 e53d 0c48 ff3d ccbe bd3d 60e2 2ebd
00000170: 40ac 2bbd b86d a3bd 109d b4bd 4869 c63c
00000180: 042c 363d b826 92bc 203e 51bd 8e1a 86bd
00000190: 1ef3 db3d 5037 4ebd a092 01bd 8059 ce3d
000001a0: 2690 983d c499 64bd 2001 23bd c28e e93d
000001b0: 747f 7dbd 400e 8dbd ce64 983d 80d7 11bb
000001c0: 00e9 d33d b2d2 f53d 5815 ef3d 8c33 f93d
000001d0: b07d e0bd 80fd c73d 8269 9dbd f2cb 8cbd
000001e0: 2c2a de3d 86fa c33d aaf3 aa3d 006a cb3d
000001f0: 7461 5bbd 4484 92bd 08e1 e53c 80dc 0dbc
00000200: 4658 cabd a0ab cb3c 3868 afbc 509a 5e3c
00000210: 747d 9d3d a89f 3b3d 48e4 b23d 18ac 043d
00000220: 6446 4a3d 76b7 d9bd 6a9b b2bd 58a8 673d
00000230: b858 f63c 86c4 9e3d a03e 1bbc 3cfc d7bd
00000240: 7234 ba3d 6c2e 30bd ac20 77bd 50b8 6c3c
00000250: 5adc debd 1891 71bd 80bd b83c 70a9 e53d
00000260: 94dd eebd 105b 30bd bea6 88bd 4025 08bd
00000270: a029 e6bd 00d0 30ba 3c2e 2dbd 5c94 da3d
00000280: 7837 9ebc 007e 853a c008 dabb 347c cdbd
00000290: 0804 803d 3876 0fbd e063 86bd 48df abbc
000002a0: c400 c9bd 7ac9 8dbd 8202 c5bd 5875 c6bd
000002b0: 10a0 0dbd 98f8 ee3c 5ece 89bd 52af 80bd
000002c0: a010 94bb 0e06 87bd 785a ba3c 40b9 9a3c
000002d0: 888f d73c b0e4 90bd c079 d63d c856 00bd
000002e0: 7c04 00bd b87a a53c 3885 803c 4a62 d2bd
000002f0: 1aaf d53d 441c 8dbd d03a 7d3c 2042 57bd
00000300: 8876 a33d f832 97bc 9c34 dc3d 60dd a2bd
00000310: 06d5 92bd 5c59 4c3d 3809 573d 00db feba
00000320: 3441 a8bd 18cd cd3c b0ba e3bd d89d 99bc
00000330: 9096 ef3c 7427 6c3d 9668 ab3d 44bc d0bd
00000340: 32ac 893d f0bc 00bc ea34 adbd 2cdd f63d
00000350: 1c21 04bd 0086 4e3a d06b 693d f0e3 6cbc
00000360: 18da c43d fc12 203d 44c7 90bd 30ba 693c
00000370: 6c66 26bd acff 173d 18a7 2b3d a0da be3d
00000380: 8c52 6dbd 08e1 80bc d4f3 cd3d 201b acbd
00000390: 72b7 813d d29a 883d 5e74 98bd 686f 9cbd
000003a0: c28f a6bd e206 b43d 8888 65bd 7498 503d
000003b0: b2da c73d 905b b2bd 1e56 9b3d de1e c33d
000003c0: 64f2 f53d 8486 4dbd 2003 c4bb 8ee9 bd3d
000003d0: 362e a23d 36d7 a4bd 0071 f93d cc24 d83d
000003e0: e0ac 6f3c dadf e0bd d294 bdbd 9475 17bd
000003f0: 4030 3abb 10e5 98bc 609b 133d 9cee f53d
0.06229113 0.12228753 0.105988786 0.0693263 0.005432561 -0.0246692 0.03119348 -0.030652598
0.02700746 0.018575445 -0.08268304 -0.07121728 0.06819986 0.010089323 -0.069250524 0.022735476
-0.026071638 -0.0058700144 -0.11354716 -0.0750829 -0.030463621 0.0009454489 0.113300815 -0.04600911
-0.07769646 -0.03183244 0.06026414 -0.11599891 0.09636873 -0.0679173 0.12068343 0.036820248
0.004115328 0.0045014173 0.06703657 -0.0072734803 0.0803366 -0.10377343 0.12351215 0.0724882
-0.07544932 -0.033817366 -0.11569902 0.049227864 -0.10915582 -0.026701644 -0.12090887 0.0819902
-0.10432422 0.07287051 0.01919356 -0.08992191 -0.0074597746 0.069009945 0.069776595 0.093305126
0.032782912 0.11817704 -0.042787194 -0.021105275 0.045527637 -0.042514995 0.07361041 0.050894946
0.09347059 -0.017558947 -0.039073512 0.045688167 0.07093555 0.05242294 0.07059719 0.03335239
0.054210246 0.10229264 0.11332913 0.083742335 -0.11811343 -0.050916344 -0.026910275 0.123260215
0.06542997 0.02942349 0.056272358 -0.095771655 0.110184506 0.11289729 -0.06693581 -0.115896955
0.111894146 0.12464914 0.09264907 -0.042696357 -0.041912317 -0.079799116 -0.0881902 0.024220124
0.04447557 -0.017840728 -0.051084638 -0.06548034 0.1073973 -0.05034572 -0.031633973 0.100756645
0.07449369 -0.055810705 -0.039795995 0.11404182 -0.061889127 -0.068874836 0.07441102 -0.0022253692
0.103471756 0.120030776 0.11673993 0.12168035 -0.10961473 0.09765148 -0.0768614 -0.06874837
0.108478874 0.09569268 0.083472565 0.09932327 -0.053559735 -0.07154134 0.028061405 -0.008658528
-0.09880118 0.02486211 -0.021412 0.013586596 0.07689944 0.045806557 0.087349474 0.032390684
0.049383536 -0.106306955 -0.08721049 0.05655703 0.030071601 0.077523276 -0.00947538 -0.10546157
0.090920344 -0.04301302 -0.060333893 0.01444824 -0.108818725 -0.058976263 0.022551298 0.11213958
-0.116633564 -0.043055594 -0.066724285 -0.03323865 -0.11238408 -0.00067448616 -0.04228042 0.106728286
-0.019313559 0.0010184646 -0.006653875 -0.100334555 0.06250769 -0.03502485 -0.065620184 -0.020980492
-0.09814599 -0.06923194 -0.09619619 -0.0969035 -0.034576476 0.029171273 -0.067288145 -0.0628344
-0.0045185834 -0.06592952 0.022748217 0.018887162 0.026313558 -0.07074869 0.10472441 -0.03133276
-0.031254277 0.020200118 0.015688524 -0.102726534 0.104337886 -0.06890157 0.0154559165 -0.052553296
0.079815924 -0.018456921 0.10752222 -0.0795238 -0.07169537 0.049889907 0.052499026 -0.0019443929
-0.082155615 0.02512221 -0.11119592 -0.018752024 0.029246598 0.057654813 0.083695576 -0.10192159
0.06722297 -0.007857546 -0.08457358 0.12053904 -0.032258138 0.0007878244 0.056987584 -0.014458641
0.096119106 0.039080605 -0.07069257 0.014265582 -0.04062502 0.037109062 0.0419074 0.09319043
-0.05794005 -0.015732303 0.10056272 -0.08403611 0.063338175 0.06670155 -0.0744407 -0.076384366
-0.081328884 0.08790375 -0.05603841 0.05092664 0.0975851 -0.087088704 0.07584785 0.09527372
0.12009123 -0.050177112 -0.005981818 0.09273063 0.0791897 -0.08048861 0.12179756 0.105538934
0.014628619 -0.10980196 -0.09256901 -0.036977366 -0.0028410107 -0.018663913 0.03603685 0.12008402

model.2.bias f4 [32]
00000000: 706d 263d 1e05 a33d 940d 0c3d d032 593c
00000010: a061 7b3d 30e3 7bbd 28a6 efbd ead5 ddbd
00000020: a0cc b63c cc1b 5ebd cc79 b4bd 4467 efbd
00000030: 0c93 913d 4449 30bd c89b 883c 7211 f73d
00000040: 520b 9ebd fa06 c43d 90f6 9fbd 08a6 f13d
00000050: 9a74 f33d 3c1d 433d 445e c8bd c654 a83d
00000060: f8f4 cabd faa3 a6bd 7061 dcbc 0069 f6bb
00000070: ec20 c4bd d0ad 183d bcde 253d 94a3 19bd
0.04063171 0.079599604 0.034192637 0.013256744 0.0613724 -0.06149596 -0.11701614 -0.108318165
0.02231437 -0.054225728 -0.088122934 -0.11689618 0.07108125 -0.04303862 0.016675845 0.12063874
-0.07717003 0.09571643 -0.078107 0.11799246 0.11887474 0.047635302 -0.09783605 0.08219294
-0.09910005 -0.08136745 -0.02690193 -0.007519841 -0.09576592 0.037275136 0.04049562 -0.037509516

model.4.weight f4 [1, 32]
00000000: aa07 bebd d7b4 bcbd b582 193e cae5 cebc
00000010: dfd0 83bd f5c2 26be b69b 01be 8c51 09be
00000020: 8ba2 31be 2f66 343d 712f 0fbd 0d66 c9bd
00000030: 0635 f83d 9357 aa3d 3535 13be ab8b c5bd
00000040: 134d 133d dba9 283e 0f52 ac3d 74cc 8bbd
00000050: f0f5 c4bd e0a9 153d 9bc6 683d 6368 08be
00000060: cfab 023e 0853 0dbd c472 073e ff4c 063e
00000070: 6a33 103e e40d 9bbd a96d c1bd 0f2a 263e
-0.092788056 -0.0921418 0.14991267 -0.025256056 -0.064363234 -0.16285308 -0.12657055 -0.13410014
-0.17347161 0.044042762 -0.034957353 -0.09833918 0.121194884 0.08317485 -0.14375766 -0.0964578
0.035962176 0.16471045 0.08414089 -0.06826106 -0.09617221 0.03653896 0.05683003 -0.1332107
0.12760852 -0.034503013 0.13227373 0.13115309 0.14082113 -0.07571009 -0.09444744 0.16226982
