EFT_minitree/shared_binwise_correction_model.pt (torch, 5688 bytes, 5 tensors)

model.0.weight f4 [32, 3]
00000000: 5953 7a3e a5de 15bf a9bd 963d 8feb c93e
00000010: 6c30 ebbc 20aa 10bd 43d2 103d 0e6f 3fbd
00000020: 840c 0c3e 04b8 9bbe 1b7d d3bd 8e31 89bd
00000030: 9d7d 90bc 356e 09bf 0c15 1dbe 78c6 a9be
00000040: d38f 16bf 506d 70be 04d6 cd3d 9560 b3be
00000050: 46ce f2bb 24ee 183f 3e20 a23e 634f 5d3d
00000060: 4ad3 fd3e 9cfa a8be a1ff 76bd ed09 b2bd
00000070: 72db 093e dc3d 9cbe 24b0 d03e bc50 04be
00000080: c8cc 803e 437f eebe 47fc 983e d907 0ebc
00000090: 0396 1abf 7ddd ad3e 2613 6ebe 0c12 eebe
000000a0: cd30 a53e 61d3 ba3d 940f 9e3d ded7 2abe
000000b0: 6e7a b0be a106 ce3e 200c b9be 1e64 16be
000000c0: 934f 9cbe 857b 0ebf 91d0 93be 88b4 3e3e
000000d0: 7d01 6cbd 7115 343e 9aca a03d a869 963e
000000e0: c62b d23e f21b 0dbf 9d8b 853e e86f a2be
000000f0: 0edb 1a3e f486 9cbe d01e ffbe 15a4 873e
00000100: 7da8 3e3e a214 f8ba 48b4 923e 5600 1b3f
00000110: d3fc cb3d 7444 f63e 11f8 953d ca41 80be
00000120: 3376 e43d 3c01 e3be 1965 bebe ca8e 34be
00000130: 98ab b53d 0339 b73e 4067 96bd 907e c9be
00000140: a182 833e 516a 0d3f 8845 383e cef5 bcbe
00000150: 22f2 c93c 6e98 e83e 01df 723e c2f2 23be
00000160: 76db ecbe 9184 12bd cfab 86be cf37 713e
00000170: 4b07 0a3f 21c1 d23c dc6d bc3e 36c5 3a3e
0.24445857 -0.58542854 0.073603936 0.3943753 -0.028709613 -0.035318494 0.03535677 -0.04673677
0.1367665 -0.3041383 -0.10326596 -0.06698905 -0.017638022 -0.5368379 -0.1534006 -0.33159232
-0.5881321 -0.234792 0.10050586 -0.35034624 -0.0074098436 0.59738374 0.31665224 0.054030787
0.49575263 -0.330037 -0.06030238 -0.086932994 0.13462618 -0.30515945 0.40759385 -0.12921423
0.25156236 -0.46581468 0.29879972 -0.008668863 -0.6038515 0.33958045 -0.23249492 -0.46498144
0.32263795 0.091223486 0.07717815 -0.1668391 -0.34468406 0.40239432 -0.36142063 -0.14686629
-0.3052946 -0.55657226 -0.2887006 0.18623555 -0.057618607 0.17586304 0.07851143 0.29377484
0.4104902 -0.55120766 0.2608308 -0.31726003 0.15122625 -0.3057171 -0.49828196 0.26492372
0.1861896 -0.0018927047 0.2865317 0.6054739 0.09960332 0.480991 0.073227055 -0.25050193
0.11155357 -0.4433688 -0.37186506 -0.17632595 0.088706195 0.35785684 -0.07343912 -0.39354372
0.256856 0.5524035 0.17995274 -0.36906284 0.02465159 0.45428795 0.23717882 -0.16010574
-0.46261185 -0.035770956 -0.26302955 0.23556446 0.5391738 0.025726857 0.36802566 0.18239293

model.0.bias f4 [32]
00000000: bc86 fdbd 0c39 e53e c3f2 acbe bd19 163f
00000010: a4f8 f13e 6ef9 423c ca8c b13e e6ff cd3e
00000020: 7d41 883e 940a 7b3e 3796 083f c802 ea3e
00000030: 5229 bf3e 804e 5dbe 7a7c c1be 5ffb acbe
00000040: 03ee c83c 5012 a1be 2bae 82be 6bf9 993e
00000050: bc45 823c bad6 e33e 1c6c a03e 1d88 4f3d
00000060: 17a8 86be ee92 e53e 6bbc 183d 7b98 ddbd
00000070: 009c d2be 5f05 bb3e ea74 203e 579d 433e
-0.12379214 0.44770086 -0.33778962 0.58633024 0.4726001 0.011900289 0.34677726 0.40234298
0.26612464 0.24515754 0.5335421 0.45705247 0.37336212 -0.21611977 -0.3779028 -0.3378553
0.024527555 -0.31459284 -0.25523505 0.30073103 0.015902393 0.4449976 0.3133248 0.050666917
-0.26300117 0.4483866 0.037289064 -0.10820099 -0.41134644 0.36527535 0.15669599 0.19102989

model.2.weight f4 [16, 32]
00000000: fbc9 083e f7d0 b03d 4a4c 223e 3e3c 3b3d
00000010: d0e0 99bd b3df 583d 5063 6e3d 730a cf3c
00000020: 8d92 083e 6633 443d 564d edbd 9700 fb3d
00000030: 4a16 093e c2ad cebd 2cb6 b3bd 2def 59bc
00000040: 8e56 433d 1ec3 08be 6179 363c 0b40 a7bd
00000050: 69b4 cbbd 26e9 c1bc 9155 293e a0bb f2bd
00000060: a315 66bd 9f8a 523e 609b 3a3c 73f1 3bbd
00000070: 96cf 633d e636 743d e49a 393e 43ac 4a3e
00000080: d6b3 2cbd 6889 2d3e 6234 84bd 580d c73c
00000090: 05c0 203e e864 a33d 6198 553b 3f9a 603d
000000a0: f0b1 f5bd 246c 66bc bba9 823d ec7c 6f3d
000000b0: 6ea8 063e e468 853d 7717 e7bd 1d13 34bd
000000c0: 3b7f e63d 6915 173e abd2 a73d ac7a b23d
000000d0: 8587 4b3d 61c9 78bd cbf2 c03d 75c3 333e
000000e0: 4794 093e b49e ab3d de44 403e 0b8f bd3d
000000f0: a640 4a3e ac12 533e 34a6 093c 19d2 9f3d
00000100: bdbb 27be 9ab1 893d 4207 50bd 1442 2cbe
00000110: aa1e 1e3c 4e23 a53d 19c2 003d c066 80bd
00000120: f872 ee3d 5196 a73c db01 08bc 14ff 5ebd
00000130: c72c 05be 2cf0 70bd 52f7 98bd ea7c 17be
00000140: 2191 0ebe 0706 02be 0ced d33d afab 16be
00000150: 76f4 21be 95f3 a4bd 9e88 753d b7a8 95bd
00000160: 243c f13c 75c9 0b3d 2be0 033e 8c21 9a3d
00000170: 6f47 8e3c 7e27 94bc d8dd 41be b480 b33c
00000180: 4c0d e93d 0602 a2bb 8b73 41bb 0682 cb3d
00000190: 95e4 c9bd 2593 613e adf7 6abd dcd4 e73c
000001a0: 0555 043e b846 44bd bc8d 3d3e 6159 133e
000001b0: 467a 623e 1acc f63c 6547 e7bc 18d1 0abe
000001c0: 887b 5a3e 5322 b53c 176d 01be f046 f43d
000001d0: d27d febd c8ee 283c 8b5f 2a3d 7766 87bd
000001e0: e48d 013e 6cc6 25bc d375 bcbd b4d4 983d
000001f0: 67fe 17be 1cf4 433e 04f6 e33d 58f4 1f3d
00000200: 08b4 f5bd da84 043d 1f33 93bd 8273 943d
00000210: 9b40 d6bd e218 1bbd 209d 40bd a399 c03d
00000220: e4ba dcbd 24a4 95bd 79d4 dabb 2394 1bbd
00000230: 215d a2bc 5082 91bd 95e9 e83d 6c9c b33d
00000240: 5044 3fbe a677 b2bd aa81 19bd 6567 14be
00000250: 5fde 0c3e a0bf a43d eee9 31be 6612 873c
00000260: 845c e2bd c4f1 bbbd 584a 0fbc acad 193d
00000270: 22ac bd3d 0664 863d 7f16 06be dad0 93bc
00000280: 3688 073e 2117 4e3d 8e8e 5bbd 8685 e1bc
00000290: 8bf4 64bd 9ad8 06bd 6898 573e 2d35 383e
000002a0: edc3 293e e87a 9e3d 8f95 613c 3165 803d
000002b0: 1283 293e 1ed9 123d 900a 9fbd 79de 08be
000002c0: 7430 843c 67ee 72be d1d1 10be 33c4 e33d
000002d0: 3f72 283e 17be b53d b52d 233b 9b1f 133e
000002e0: 3495 1f3e acd2 c73d faea eebd 274a ba3d
000002f0: 0cb6 09bd 1733 56bd dde7 153d 3313 d0bd
00000300: 7b44 0f3c dd54 9ebd 2d6d 1a3e 3aa7 f3bd
00000310: 75c3 c03d 4cb9 e93c 60da 11be d264 07be
00000320: 49cd c33d 8594 21be 5b6b fdbd 27f6 a63d
00000330: 1e7e 96bd 3c0c febd 7895 453c a4bc 313c
00000340: cd42 63bc 9bcd ae3b 71c6 f2ba 5cf6 a43c
00000350: 5601 d5bd 042a ecbd 5a2e 883d cd1d 99bd
00000360: f584 f0bc 14c6 bdbc 1a6e 003d f4be 803c
00000370: 374b 013e d19c 8c3c 223c 343e 4b40 21be
00000380: 5b41 8ebc 397b 11be 8306 f43d db5c e1bd
00000390: eeab 363d 58cc 36be 56a9 10be 6f19 d63b
000003a0: f5db 873d 69cf cbbd fb72 e43d 064e 6a3d
000003b0: d489 30be b40e fd3c 79fe c0bd 9be1 ac3d
000003c0: de1d b3bd 96bf 9abd 2231 e63c ddc0 48bd
000003d0: 96f4 083b ba1d 8ebd cba8 cbbc e21e f23d
000003e0: 9b22 293d 203b bd3d ca0c 8fbd 5c18 123d
000003f0: 0c9f 0c3e 299b 803d 9844 32be 4bbc 24be
0.133583 0.08633607 0.15849414 0.04571175 -0.07513583 0.05294771 0.05820018 0.025273537
0.13337155 0.04790058 -0.11587016 0.12255972 0.13387409 -0.100917354 -0.08774981 -0.013301653
0.047689967 -0.13355681 0.011137337 -0.08166512 -0.0994652 -0.023670744 0.16536547 -0.11852193
-0.056172978 0.20560692 0.011389583 -0.04588456 0.05561789 0.059622668 0.18125492 0.19792275
-0.042163692 0.16946948 -0.06455304 0.024298355 0.1569825 0.07978231 0.0032592046 0.0548346
-0.119968295 -0.014063869 0.0638003 0.058468744 0.13150188 0.06514147 -0.112837724 -0.04396354
0.11254736 0.14754261 0.081944786 0.08714804 0.04968979 -0.060738925 0.09421309 0.1755503
0.1343547 0.083798796 0.18776271 0.09255799 0.19751224 0.20612592 0.008401442 0.07803745
-0.1638021 0.06723328 -0.05078817 -0.16822082 0.009650866 0.080633745 0.031435106 -0.06269598
0.11643022 0.020457419 -0.008301224 -0.05444248 -0.13005362 -0.058822796 -0.074690476 -0.14793745
-0.1392255 -0.12697612 0.103479475 -0.1471393 -0.1581591 -0.08054272 0.05994474 -0.073075704
0.029447623 0.03412767 0.12878482 0.0752593 0.017368047 -0.018085238 -0.18932283 0.021911956
0.11379489 -0.004944089 -0.0029518332 0.099369094 -0.09858052 0.22028787 -0.05736511 0.028299741
0.12923057 -0.047919005 0.18511099 0.14389564 0.22116956 0.03012662 -0.028232286 -0.13556325
0.21336186 0.022111094 -0.1263927 0.11927593 -0.12426342 0.010310836 0.041595023 -0.066113405
0.12651783 -0.010118108 -0.09202161 0.07462445 -0.1484314 0.19136089 0.11130908 0.039051384
-0.11997229 0.03235326 -0.07187485 0.07248594 -0.10461541 -0.037865527 -0.047024846 0.09404304
-0.10777834 -0.07306698 -0.0066781607 -0.03798307 -0.019819798 -0.07104933 0.11372677 0.087700695
-0.18678403 -0.087142274 -0.037477173 -0.14492567 0.13756703 0.08044362 -0.17374393 0.016488265
-0.11052802 -0.091769725 -0.008745752 0.037519142 0.09261347 0.06562047 -0.13094519 -0.018043924
0.13235554 0.050315026 -0.053602748 -0.02752949 -0.055897277 -0.03292141 0.21054232 0.17989035
0.16578646 0.07738286 0.013768568 0.06269301 0.16553906 0.03585159 -0.077656865 -0.13366117
0.016136386 -0.23723756 -0.14142539 0.111214064 0.16449831 0.088741474 0.002489907 0.14367525
0.1558426 0.09756979 -0.11665912 0.09096175 -0.03362088 -0.052294817 0.036598075 -0.10159912
0.008744354 -0.0773103 0.1508071 -0.1189713 0.094122805 0.02853074 -0.1424346 -0.13222054
0.095606394 -0.15779312 -0.12373992 0.081524186 -0.07348274 -0.12404677 0.012059562 0.010848198
-0.013870907 0.0053345687 -0.0018522275 0.020137005 -0.104006454 -0.11531451 0.06649466 -0.07476387
-0.029360274 -0.02316574 0.031355 0.015716054 0.12626348 0.01716462 0.17601064 -0.15747182
-0.017365148 -0.14207162 0.119153045 -0.11004039 0.04459756 -0.17851388 -0.14127097 0.0065337936
0.0663375 -0.0995167 0.11154743 0.057203315 -0.17240077 0.0308908 -0.09423537 0.08441468
-0.08745931 -0.07556073 0.0280996 -0.049012054 0.0020897738 -0.06939264 -0.02486076 0.11822297
0.041292768 0.09239793 -0.06984861 0.035667762 0.13732547 0.062795945 -0.17408979 -0.16087453

model.2.bias f4 [16]
00000000: d0bf 873d c93b 0e3e f604 15be c376 e0bd
00000010: dc98 a2bc bea9 cebd df08 613c f80d 9d3d
00000020: a976 783d 38c2 03be 3cea 603e fb0d ae3b
00000030: 2a4d 2ebe b1db 0a3e 9f09 513e a0bf 32be
0.06628382 0.13889994 -0.14552674 -0.10960152 -0.01984828 -0.100909695 0.013735025 0.0766868
0.06066004 -0.12867057 0.21964353 0.005311725 -0.17021623 0.13560368 0.20413826 -0.17455912

model.4.weight f4 [1, 16]
00000000: 80a3 3c3e 1790 8a3e 2f36 43be 3c57 103e
00000010: 01dd 96bd 9e42 8f3e 68f5 7c3e d060 49be
00000020: 4e87 36bd 96b9 61be 721c 473e ecc6 d33d
00000030: 0d2a d3bd 38ff 593d 3ae9 963e 2585 27be
0.18421745 0.27063057 -0.19063638 0.14095777 -0.07366372 0.27980512 0.2470299 -0.19665837
-0.04456263 -0.22043452 0.19444445 0.10340676 -0.10310755 0.05322191 0.29474813 -0.16359384
